----------------------------------------------------------------
        Layer (type)               Output Shape         Param #
================================================================
            Conv2d-1         [-1, 64, 112, 112]           3,200
       BatchNorm2d-2         [-1, 64, 112, 112]             128
         MaxPool2d-3           [-1, 64, 56, 56]               0
            Conv2d-4           [-1, 64, 56, 56]          36,928
       BatchNorm2d-5           [-1, 64, 56, 56]             128
              ReLU-6           [-1, 64, 56, 56]               0
            Conv2d-7           [-1, 64, 56, 56]          36,928
       BatchNorm2d-8           [-1, 64, 56, 56]             128
              ReLU-9           [-1, 64, 56, 56]               0
         Residual-10           [-1, 64, 56, 56]               0
           Conv2d-11           [-1, 64, 56, 56]          36,928
      BatchNorm2d-12           [-1, 64, 56, 56]             128
             ReLU-13           [-1, 64, 56, 56]               0
           Conv2d-14           [-1, 64, 56, 56]          36,928
      BatchNorm2d-15           [-1, 64, 56, 56]             128
             ReLU-16           [-1, 64, 56, 56]               0
         Residual-17           [-1, 64, 56, 56]               0
           Conv2d-18          [-1, 128, 28, 28]          73,856
      BatchNorm2d-19          [-1, 128, 28, 28]             256
             ReLU-20          [-1, 128, 28, 28]               0
           Conv2d-21          [-1, 128, 28, 28]         147,584
      BatchNorm2d-22          [-1, 128, 28, 28]             256
           Conv2d-23          [-1, 128, 28, 28]           8,320
             ReLU-24          [-1, 128, 28, 28]               0
         Residual-25          [-1, 128, 28, 28]               0
           Conv2d-26          [-1, 128, 28, 28]         147,584
      BatchNorm2d-27          [-1, 128, 28, 28]             256
             ReLU-28          [-1, 128, 28, 28]               0
           Conv2d-29          [-1, 128, 28, 28]         147,584
      BatchNorm2d-30          [-1, 128, 28, 28]             256
             ReLU-31          [-1, 128, 28, 28]               0
         Residual-32          [-1, 128, 28, 28]               0
           Conv2d-33          [-1, 256, 14, 14]         295,168
      BatchNorm2d-34          [-1, 256, 14, 14]             512
             ReLU-35          [-1, 256, 14, 14]               0
           Conv2d-36          [-1, 256, 14, 14]         590,080
      BatchNorm2d-37          [-1, 256, 14, 14]             512
           Conv2d-38          [-1, 256, 14, 14]          33,024
             ReLU-39          [-1, 256, 14, 14]               0
         Residual-40          [-1, 256, 14, 14]               0
           Conv2d-41          [-1, 256, 14, 14]         590,080
      BatchNorm2d-42          [-1, 256, 14, 14]             512
             ReLU-43          [-1, 256, 14, 14]               0
           Conv2d-44          [-1, 256, 14, 14]         590,080
      BatchNorm2d-45          [-1, 256, 14, 14]             512
             ReLU-46          [-1, 256, 14, 14]               0
         Residual-47          [-1, 256, 14, 14]               0
           Conv2d-48            [-1, 512, 7, 7]       1,180,160
      BatchNorm2d-49            [-1, 512, 7, 7]           1,024
             ReLU-50            [-1, 512, 7, 7]               0
           Conv2d-51            [-1, 512, 7, 7]       2,359,808
      BatchNorm2d-52            [-1, 512, 7, 7]           1,024
           Conv2d-53            [-1, 512, 7, 7]         131,584
             ReLU-54            [-1, 512, 7, 7]               0
         Residual-55            [-1, 512, 7, 7]               0
           Conv2d-56            [-1, 512, 7, 7]       2,359,808
      BatchNorm2d-57            [-1, 512, 7, 7]           1,024
             ReLU-58            [-1, 512, 7, 7]               0
           Conv2d-59            [-1, 512, 7, 7]       2,359,808
      BatchNorm2d-60            [-1, 512, 7, 7]           1,024
             ReLU-61            [-1, 512, 7, 7]               0
         Residual-62            [-1, 512, 7, 7]               0
AdaptiveAvgPool2d-63            [-1, 512, 1, 1]               0
          Flatten-64                  [-1, 512]               0
           Linear-65                   [-1, 10]           5,130
================================================================
Total params: 11,178,378
Trainable params: 11,178,378
Non-trainable params: 0
----------------------------------------------------------------
Input size (MB): 0.19
Forward/backward pass size (MB): 55.32
Params size (MB): 42.64
Estimated Total Size (MB): 98.16
----------------------------------------------------------------
epoch:1 train loss:0.3993 train acc:0.8562 val loss:0.3231 val acc:0.8824 time_cost:2m50s lr:0.0001
…
